models/srcnn_x4.onnx (onnx, 229897 bytes, 5 tensors)

conv1.bias f4 [64]
00000000: 149f 1ebd e55a bbbc 02b6 543d 387b 523b
00000010: 382f 023d 758c ca3a e1c2 4e3d 71fa e63b
00000020: fcc0 ed3d 82f2 c9bd d05b 7abc 21b0 b73b
00000030: a006 4cbd a8c7 743e 742b a63c eba8 3eba
00000040: 8c79 77bc 7bf8 3fbd 98a6 9c3d 7a5c b8bb
00000050: d076 77bc 4f32 4ebc 61b4 19bd 38ab 8c3d
00000060: bb10 2ebd ee29 a93c bb4d 15bd fd81 6f3d
00000070: 7e86 c53c 47f8 753c bc6d 5d3d be7b 5cbb
00000080: bcb9 133d cc1d 3f3c fc8f 133c 5bef e1bd
00000090: 2b48 05bd 20c9 923d 15a6 573d 0544 733d
000000a0: 1b4b 713d d585 80bc 338d 623d f769 3f3d
000000b0: 73bf 463e d5ef c03c 8a6b 8ebc bc7b b1bc
000000c0: 47de 883d ed07 58bb 18a7 cdbc ba43 c93c
000000d0: 21d5 643b e4e2 f8bc 271a f8bc 76ca a137
000000e0: 41cd 163d ebde 96bc f94e 313d 7355 623d
000000f0: 616c d43c 1fc5 723c c743 08be b145 b6bb
-0.038725927 -0.02287049 0.05193139 0.00321169 0.031783313 0.0015453236 0.05047882 0.007048898
0.116090745 -0.09860708 -0.015280679 0.005605713 -0.049811006 0.23904288 0.020284392 -0.00072730955
-0.015104663 -0.04686783 0.07648963 -0.0056262584 -0.015104011 -0.012585237 -0.03752554 0.06868595
-0.042496424 0.020649876 -0.036451083 0.058473576 0.024111982 0.015012807 0.05405973 -0.0033643092
0.036065802 0.011664819 0.0090064965 -0.110319816 -0.032539528 0.07167268 0.052648623 0.05939104
0.058909517 -0.015688816 0.05531044 0.046731915 0.1940897 0.02355186 -0.017385263 -0.021665446
0.06683021 -0.0032963709 -0.02510409 0.024568427 0.0034917074 -0.030381627 -0.030285908 1.9286974e-05
0.03681684 -0.018416842 0.043288205 0.055257272 0.025930585 0.014817505 -0.13307105 -0.005562507

conv1.weight f4 [64, 1, 9, 9]
00000000: e721 d83d 45c8 ed3d 3a22 843a e010 5c3d
00000010: d1d6 02be 68f9 803d 93cb b8bd 2bbb abbd
00000020: a7ef 3dbd dd28 f73d c9f7 bfbc d90a b83c
00000030: c73c 04be 777b e7bd dc25 69bd cb78 17bd
00000040: c5fe b9bd 46e8 ae3d ec71 1ebd 9605 88bc
00000050: 534b ed3c fc80 86bb 1a8f de3c ac55 103e
00000060: 0483 1fbd 9eb0 033d 80f5 49bd e5f2 b13c
00000070: 153e 943b ff42 13be 301c ee3d 888d d53d
00000080: 9c9a f03d 6a4e 9c3d d8db c73d 21e9 6ebc
00000090: 9316 18be 964b b1bd 1e2a adbd c43b 8d3d
000000a0: 672c 4c3d 489f cfbb c974 68bc 4fdd 8a3d
000000b0: f709 7fbd 6bc2 adba c722 97bc 4c74 153d
000000c0: b214 253e 2617 e93d ce89 5b3d 9ff8 7bbc
000000d0: 189f 5fbc e9b6 87bc 795e 4abc 51a9 c3bd
000000e0: 064e 6ebd 97cd 033e 263f c13c dc72 c6bd
000000f0: be7c 6cbc fd37 c33d 730c fcbd fed8 90bd
00000100: a13e 46bd 32eb 81bc 79a6 10bd 1995 cabc
00000110: e96f f8bd 0c0b 413d 4071 213e 5df6 c93d
00000120: 2547 03bd efe3 a3bd 1b91 203c c59a 44bd
00000130: e6e7 dd3b 40de 06be 2167 03bc b73f 253e
00000140: e8f0 bd3d 4128 323d dcab 183c ce08 13bd
00000150: 21fa bfbd 95fe 8fbd b34c 88bd d38b e53d
00000160: 184a 5e3d 73cf 79bc 1780 85bd c1ac 4c3d
00000170: cad5 adbc c18e 183b ef20 fdbd b2d0 1cbd
00000180: 5d43 ce3d 7e2b b93d 8dfa ba3d aa61 0cbd
00000190: 0b05 a53d 9457 b6bd 467d 1ebc 43bc d6bd
000001a0: 9855 a7bd 1b7d 9cbc 1cfb 883d dce7 203e
000001b0: 13dd d23b c9ac cb3b d686 e33d cbb1 30bd
000001c0: a594 cc3c b1f9 c0bd d563 34bd 05bd 5d3d
000001d0: 9cf6 f6bc 10ba 0ebd f598 8c3d 9d6c 253e
000001e0: 584a 253c 3783 ce3c 6e22 bb3c fb52 a9bd
000001f0: 4cef 133e 2861 453c e734 e93b 0189 7a3d
00000200: 3b9e 5c3d d11a 9e3d e60d cbbd 8f46 aabd
00000210: d31b 44bd a92d 10bd 0c64 633d ca34 7fbd
00000220: 65f6 a73d 3378 a93c 7e15 bebc 0b07 cbbd
00000230: b2e6 e4bd 223b 87bd 2392 ea3d 4008 663e
00000240: e340 963d dfcd 67bb 447e 5abd 4896 a6bc
00000250: 8165 13be 57f6 3ebe 7d96 c7bd f3bc 483d
00000260: 0f9c 093e 85d8 113d b08f 8e3c 180c 3d3d
00000270: e7a7 05be 553c 68bd bc57 47be e43a 073d
00000280: cfea 9c3d 19a9 2e3e 83d8 68bd 6183 ea3d
00000290: 6bc6 043e cb16 1e3e e9e0 f03d 8fa9 4b3e
000002a0: 0cd9 f63d 620b 973d 159e 94bd ef71 c3bd
000002b0: 6576 07bd e9f1 f1bc a631 0abe 1ce9 f5bd
000002c0: a6e5 14be 5820 9abd ec3c 873d 4849 17bd
000002d0: 9bec cc3c 83f3 673c 6235 813d 1334 fabd
000002e0: 746e f7bd 2eae 88bd 723c 99bd 727e 903d
000002f0: cda5 a23d e10f b3bd 4323 bcbd 932c ccbd
00000300: bcc9 453d dd22 b83d 84e3 b7bd 38ef 29bd
00000310: 0684 7a3d 2674 3abd d478 e53d 5962 173d
00000320: 0bec d4bb 4c68 213d 1b60 8a3d c581 9abc
00000330: 1f6d 81bd 1c1b 963c 0f45 923c 396c 793c
00000340: 1a43 d8bb cee8 db3d f3b3 e23c 35a4 793d
00000350: 44be c13d aadc fdbc 41c7 c73c 782e adbc
00000360: 379e 833d f461 93bd f862 903c aa57 4f3d
00000370: 52c6 03bd 11f2 25bd 660c 933d ab19 7abd
00000380: 90c9 613d fbfd acbd 2841 8cbd 8ec2 c3bd
00000390: b729 463d 4d19 753c a4f6 4fbc 355f 97bc
000003a0: c203 0ebe e3cd 693c 6f86 5f3d dc79 8ebd
000003b0: 0c75 233d 4fbc 8fbc a0fe e1bd 77ec 813d
000003c0: de30 a63d 0194 f8bc e7e1 c0bc 4c12 8b3d
000003d0: 58c0 c93d 0e16 843d f1a6 2bbe ed20 d2bd
000003e0: cde7 ae3d 22e7 bc3d 9b0c 883d fca0 8ebd
000003f0: c5a9 063e 5911 d5bd 5b22 7dbd bd0a babd
0.10553341 0.11610464 0.0010081001 0.05372703 -0.12777258 0.062975705 -0.09023204 -0.08385309
-0.04637113 0.12068341 -0.023433583 0.02246611 -0.1291381 -0.11302846 -0.05692087 -0.03698043
-0.090817966 0.085403964 -0.038682863 -0.016604226 0.028966581 -0.0041047316 0.027167846 0.14095181
-0.038943306 0.032150857 -0.049306393 0.021722266 0.0045240023 -0.14381026 0.1162647 0.104273856
0.117482394 0.07632144 0.09758729 -0.014581949 -0.14852361 -0.08656995 -0.08455299 0.06896165
0.049847033 -0.0063361265 -0.014188 0.067804925 -0.062265363 -0.0013256794 -0.0184492 0.036487862
0.16121176 0.11381368 0.053598218 -0.0153791 -0.013648771 -0.01656671 -0.012351626 -0.09553779
-0.058179878 0.12871395 0.023589682 -0.096898764 -0.014434038 0.09532163 -0.12307062 -0.07072638
-0.04839957 -0.01585922 -0.03531501 -0.024729298 -0.1213072 0.047129676 0.15765858 0.09861443
-0.03205027 -0.08002459 0.009800221 -0.047999162 0.006772029 -0.13170719 -0.008020193 0.16137587
0.09274465 0.04349542 0.009318318 -0.03589707 -0.0937388 -0.070309795 -0.06655254 0.1120831
0.05426988 -0.015247214 -0.06518572 0.04996944 -0.021220107 0.0023278447 -0.12359797 -0.038284965
0.10071442 0.090414986 0.0912982 -0.034272827 0.080576025 -0.08903423 -0.009673422 -0.10485127
-0.081706226 -0.019102624 0.0668852 0.15713447 0.0064350455 0.006215666 0.11109702 -0.043138307
0.024973223 -0.09422625 -0.04404052 0.05413534 -0.03014689 -0.03484541 0.06865112 0.16154714
0.010088526 0.025209052 0.022843566 -0.082677804 0.14446753 0.01204709 0.007116902 0.061165813
0.053861838 0.077199586 -0.0991476 -0.08314239 -0.047878098 -0.035199795 0.055515334 -0.062306203
0.08201293 0.020687198 -0.023203608 -0.09913453 -0.11176814 -0.066030756 0.114536546 0.22464085
0.07336595 -0.0035370511 -0.053343073 -0.020335332 -0.1439419 -0.18648659 -0.097455 0.04900832
0.13438438 0.03560688 0.0174025 0.04615411 -0.13052331 -0.056698162 -0.19467062 0.033015147
0.07661974 0.17056693 -0.056847107 0.1145084 0.12966315 0.15438382 0.11761648 0.198889
0.12053117 0.07375218 -0.07256714 -0.095432155 -0.033071894 -0.029534297 -0.13495502 -0.12007353
-0.14540729 -0.075257 0.06603417 -0.03693512 0.025015166 0.014157179 0.0630901 -0.122169636
-0.12081614 -0.06673847 -0.07482232 0.070553675 0.0794178 -0.08743263 -0.09186413 -0.09969439
0.048288092 0.08991025 -0.08978942 -0.041487902 0.061161064 -0.045520924 0.11204687 0.036959026
-0.006497865 0.039406106 0.06756612 -0.018860707 -0.06319641 0.018323474 0.017855195 0.015223556
-0.006599796 0.10737763 0.027673697 0.060947616 0.094601184 -0.03098901 0.024387004 -0.021140322
0.064266615 -0.071964175 0.017625317 0.050620712 -0.032171555 -0.040514056 0.07180099 -0.061059635
0.055123866 -0.084468804 -0.06848365 -0.09558593 0.048379626 0.014959645 -0.012693081 -0.018478015
-0.13868621 0.014270279 0.054571565 -0.069568366 0.039906546 -0.017545847 -0.11034894 0.0634393
0.081147894 -0.030344011 -0.023545219 0.06790599 0.0985114 0.06449519 -0.16762902 -0.10260186
0.08540306 0.092237726 0.06643029 -0.06964299 0.131507 -0.104036994 -0.061800342 -0.090840794

conv2.bias f4 [32]
00000000: ae91 c1bc 2197 853c 44d6 74bb 56a2 78bb
00000010: b693 5b3d 57a0 41bc 27d1 03bd ed8f 533d
00000020: 3a0d e23d f031 113d efca 413d e790 3f3d
00000030: ead0 8e3d 1a41 de3c 6bca 0cbc 2db1 8abc
00000040: 2061 68bc b166 e2bc 4c88 1b3c 19ff 873d
00000050: 0326 17bd 5245 043d 7975 cebd c6a4 af3d
00000060: 404c 62bd e7b2 523d 8237 2c3d f7fb 02ba
00000070: 81ac b23c 214e c33b 990b 1cbe 2cef 233d
-0.023629036 0.016307415 -0.0037359158 -0.0037938557 0.053607665 -0.011818013 -0.032181885 0.05165093
0.11037679 0.035448015 0.047312673 0.04676905 0.06973441 0.027130652 -0.008593182 -0.016930187
-0.014183313 -0.027636858 0.009492945 0.06640453 -0.036901485 0.03229267 -0.10081 0.0857635
-0.0552485 0.051440146 0.042045124 -0.0004996652 0.021810772 0.0059602414 -0.15238799 0.040023014

conv2.weight f4 [32, 64, 5, 5]
00000000: bebb b0bc d01c d5bc 4696 703d a0c9 2d3d
00000010: 6190 263c 7808 d4bc 2dab 56bd 0884 413c
00000020: 2515 3b3d 020c c83d 01af dcbc 96cb b1bd
00000030: c93f a3bc a619 afbb d856 383d 6129 483d
00000040: 4e7d f93c b338 183d 5e75 a13d 1043 983d
00000050: 38c3 9f3d 11b8 b93d 5317 fa3b 6293 863d
00000060: db5e 2dbc bfbc 3d3d b763 eebd 291c 90bd
00000070: 999f 13be ceb0 ce3d fa3d eabc fb89 03be
00000080: f242 293c 5a96 1cbd 3803 9d3b 9ccd 91bc
00000090: 9eba 67bd 47a7 6e3d 3092 2ebb b33a 30bd
000000a0: 4cbc 803d 2a8f 563c 6ca9 973b bd52 45bd
000000b0: 1494 26be c9a2 803d 87ec 58bc 7e48 21bd
000000c0: 681b dabc 94d9 a6bd 3296 a03c b611 e03b
000000d0: 0562 63bd e2b2 b3bd 385c 0fbe d08d cebc
000000e0: dd6b 1bbd 16e4 4f3a b645 04bd 0d1e aabb
000000f0: 9c19 84bc 41d7 bbbc dd1f d2bc 0c3c 00bc
00000100: f5e1 dabc a359 1d3b bdb3 bc3c 0744 133d
00000110: 3b4b 3c3d 6d1a 9dbc 8d0c 443d 2d43 b83c
00000120: 81d8 5f3d e970 d33d 4e44 4a3d a93a 2c3e
00000130: 5986 943d 067c 0b3e 499e 1b3d ba2d 953d
00000140: 5ed1 653d fe17 b73c e0e6 db3c 20d7 ec3b
00000150: 6d9d aabb 0b8d 633d 3cce 393d b753 07bc
00000160: ac6b fa3c b0f9 31bc a9f8 b83d 5f07 673d
00000170: b7e7 ae3b 9926 ea3c 1af2 1ebb 56c0 2c3e
00000180: 3a48 6b3d fd96 203c 55da 51bd a22c 8ebd
00000190: fe8e f13c 06dc 823d c479 a33d 59e5 673d
000001a0: ef31 27bc b747 15bd e454 d5bb 135b a7ba
000001b0: f86b 043d c1fa b43c 422e 1dbd c6d6 27bd
000001c0: 9744 053c f526 0e3d e8d3 603b 6792 51bd
000001d0: 86f7 17bd d7d9 0ebd f466 403d 7e7b 9c3d
000001e0: becf 8ebc 319a 00bd 97f8 f3bc c2b8 c2bc
000001f0: 8b21 ce3c b14c 22be 515b a5be eb92 38be
00000200: 561b f5bd 412b 5ebf db5f cebe 2c70 bdbe
00000210: 2956 52be 1646 87bd 435a 79bd a011 d6bc
00000220: f0ea d7bc f942 b4bc 7e67 52bc 1192 0cbd
00000230: ac38 38bc a3c6 0ebc 5f57 debc 2de5 05bc
00000240: a394 2dbd f462 3cbd 611e 09bd 1f4b 013b
00000250: 6a29 70bc 0c3b 89bd 34b8 b7bd b371 bfbd
00000260: a186 0abd 08d5 8e3d 6392 17bd 92d8 0c3d
00000270: 7146 133d ee5e 363d 85ff a43d 5ffc b43d
00000280: 0ca6 843d a858 25bd d25e 063c aa36 8d3d
00000290: c97c 813d 6700 cd3d ab50 bdbd bcbf b9bd
000002a0: 4cde 74bc 2805 6e3d 9f1b 783d ad4c afbd
000002b0: 2527 54bd 54cc 49bd 1bf7 763d e226 c93c
000002c0: 092c bd3d c0d1 633b d5ff ffbc 3870 b73d
000002d0: f972 58bc be40 08bd dcc7 eb3c 3448 cfbc
000002e0: c31c 47bc c775 8bbb 90a5 4dbc 7214 c43b
000002f0: 04c7 5e3c c1e0 033c 408a 983d 74e8 df3d
00000300: b045 f13d 7e67 d63d 77c6 ba3d 6d0e ebbb
00000310: d21d f73c 8cbc 9b3d caea 25bd a9cd 11bd
00000320: 8100 33be 6bad a3bd 00c3 023d 6531 19bc
00000330: ab32 e7bc 566f 303a 0bc7 c4bb 1356 003d
00000340: dc24 f2bc 82a1 27bc f9d8 b53d 9f85 393d
00000350: 439c 143d 3b4e 0dbd 84e6 ddbc 1101 ac3d
00000360: 4e46 f1bb 088e 423d cb65 803c e935 d23c
00000370: 84c3 37bd 407c c9bd 3097 0ebd 6381 8abc
00000380: eb8b a43d 5d32 84bd 8b49 4cbd db27 8cbd
00000390: 0e89 87bd 8f18 ddbc 9662 733d 491c 453d
000003a0: 1b58 9c3d 46a8 703d 9873 d1bb 84d9 b5bb
000003b0: 014c 9b3b ea88 4a3b acb9 c53b 1b22 84bc
000003c0: cd1a 19bd 714c c1bd cf4c 3cbd 0c55 8ebc
000003d0: f127 483d 043e 6f3c 6662 1ebd c771 82bd
000003e0: e98a 343c c4ef 713d 8253 cabc af55 7dbc
000003f0: ac34 acbc 592b 10bd 17fa 9cbd 37db 79bc
-0.021573897 -0.026014715 0.058737062 0.042428613 0.010166259 -0.025882944 -0.05240934 0.011811264
0.045674462 0.09767915 -0.026938917 -0.08681409 -0.019927876 -0.0053436337 0.045004696 0.048867587
0.030455258 0.037163448 0.07883714 0.07434666 0.07800907 0.09068311 0.007632175 0.0657108
-0.010581697 0.04632258 -0.11640113 -0.07036621 -0.1441635 0.100923166 -0.028594006 -0.12845604
0.010330902 -0.038229324 0.0047916435 -0.017798238 -0.056574456 0.058264997 -0.0026637428 -0.04302473
0.06285915 0.013095656 0.004628351 -0.04817461 -0.16267425 0.06281049 -0.013239986 -0.039375775
-0.026624396 -0.081469685 0.019602869 0.006838049 -0.0555134 -0.087743536 -0.14000022 -0.025214106
-0.037944663 0.0007930411 -0.032293044 -0.0051915706 -0.016125493 -0.02292979 -0.02564996 -0.007826816
-0.026719073 0.0024009726 0.023034925 0.035953548 0.045970183 -0.01917764 0.04786353 0.02249297
0.054649834 0.1032427 0.049381547 0.16819252 0.07252187 0.1362153 0.03799275 0.07284112
0.05610787 0.022350308 0.026843488 0.0072277933 -0.005206755 0.05555443 0.045362696 -0.008259705
0.03056892 -0.010862753 0.09031803 0.056403514 0.005337681 0.028582858 -0.002425319 0.16870245
0.057441927 0.009801623 -0.05123361 -0.06942107 0.02948713 0.063896224 0.07982209 0.056615207
-0.010204776 -0.036445346 -0.006510364 -0.0012768231 0.03232953 0.022092225 -0.038374193 -0.04097631
0.008134029 0.03470512 0.0034305993 -0.05116501 -0.03710129 -0.034875717 0.046973184 0.07640742
-0.017433044 -0.03139705 -0.029781623 -0.02376974 0.025162479 -0.15849568 -0.3229623 -0.18024795
-0.119681045 -0.8678475 -0.40307507 -0.36999643 -0.2054068 -0.06605165 -0.060877096 -0.026131451
-0.026357144 -0.022004591 -0.012842057 -0.034318987 -0.01124398 -0.008714351 -0.027141271 -0.008172316
-0.04237808 -0.045992807 -0.033476237 0.0019728614 -0.014658311 -0.067007154 -0.08970681 -0.09347858
-0.0338198 0.06974226 -0.03700484 0.034386225 0.03595585 0.044524126 0.08056549 0.088371985
0.064769834 -0.040367752 0.008201318 0.06895192 0.06322629 0.10009842 -0.09243902 -0.090697736
-0.014945578 0.058110386 0.060573217 -0.085595466 -0.051795144 -0.049267128 0.060294252 0.024554674
0.09236915 0.0034762472 -0.03124992 0.08956951 -0.013211005 -0.033264868 0.028781824 -0.025302984
-0.012152853 -0.0042559835 -0.01255168 0.0059838826 0.013597254 0.008049191 0.07448244 0.10933009
0.1178087 0.10468958 0.091198854 -0.0071733505 0.030165587 0.07604322 -0.040507115 -0.035596523
-0.17480661 -0.07992061 0.031924248 -0.0093501555 -0.028222403 0.00067304575 -0.006005173 0.031332087
-0.029558592 -0.010231378 0.08879275 0.045293447 0.036281835 -0.034498435 -0.027087457 0.08398641
-0.0073631173 0.047498733 0.015673539 0.025660472 -0.044864193 -0.09838152 -0.034812152 -0.0169074
0.080345 -0.064549185 -0.049874824 -0.06843539 -0.06617938 -0.02698925 0.05942019 0.048122678
0.07633992 0.058754228 -0.0063919537 -0.0055496115 0.004739285 0.003090436 0.0060340967 -0.016129544
-0.037379075 -0.09438408 -0.045971688 -0.017374538 0.048866216 0.014602188 -0.03866806 -0.063693576
0.011019447 0.05906655 -0.024698023 -0.015462323 -0.02102121 -0.03519759 -0.07664888 -0.015250019

conv3.weight f4 [1, 32, 5, 5]
00000000: 9bd5 f43b 4fbe 2e3c 0b91 bfbb aced e83c
00000010: f357 213d f73e f4bc e544 853b 5905 fdbc
00000020: 1e00 a03b 0e7c 2d3c 4b9e cabb f4f4 cc3c
00000030: 0889 953b a7b2 14bd 7d0b afbb c268 a5bc
00000040: 2676 f6bc 8dab ccbb 8c6a 17bd 0fdb aa3c
00000050: c356 04b9 e1dd 323c 20e4 a93c 1d20 e43c
00000060: 27fc 4dbc 4e26 b4bb b487 01bd 408f 593c
00000070: f39c d63c 792d febc edc8 553c 53dc 64bc
00000080: df2e 5d3c b9f6 9cbc a1ff d8ba 0100 0dbd
00000090: d79b ca3c 7f54 0cbc 6132 d03c 5dcc 37bc
000000a0: 0cdf 613c 2d29 94bc 1689 7fbc a1d9 0ebc
000000b0: 3232 c83c a62f b53c 68be ac3c 4b8e a2bb
000000c0: 562f 0e3c 4e52 053d ddd9 5ebc be35 3abc
000000d0: 5edb d93c b50a f6bc 5270 88bc 4140 a1bc
000000e0: 5cd8 f9bb 236b d7bc 74c0 023c 73f3 c8bc
000000f0: 3398 76bc 28e4 0abd fd5e bf3c 4f13 b3bc
00000100: e52c 77bb eee0 a9bc 35d7 93bb 045f d3bb
00000110: cb2f 37bc 8bdd 00b9 1d50 7c3c dcd4 f13c
00000120: 5be7 d93c 494b d9bc 93c2 78bb fa7c 41bc
00000130: 2292 223d a004 4b3d 107d 113d f732 b73c
00000140: c1d6 643d efb2 4b3d d513 c83c da9a 8e3c
00000150: d21e cf3b 3ddf 2f3d 2e35 bd3c a6a1 573c
00000160: 7a9e c4bc 42ae 0dbd c398 1ebc fad6 c6bc
00000170: d807 64bd 3997 3fbd d085 04bd 6127 1cbd
00000180: 11a4 42bd 8d29 3abd 2851 cfbc 07f8 ce3b
00000190: 4300 9c3a 68d5 7a3b 0abf 4e3c 2f50 68bb
000001a0: ae60 783b 1ab4 57bc 4cba e43c 698c 8eba
000001b0: 3356 da3c b6e6 97bc 1442 0bbd 1640 42ba
000001c0: 80c8 0abd 765b b83c 73f1 b73c 2a84 bc3c
000001d0: 43d9 cd3c 3d36 cf3b f6fc 393c ab0f dcbb
000001e0: b193 f03c 9548 1e3c e5e2 4cbc 5686 0ebd
000001f0: 7de3 593b 86a1 d33b f481 193d fe07 2d3d
00000200: 755b 0d3d 3dd3 e1b9 b476 963c bc88 83bc
00000210: e1aa ef3b a417 fe3b 3604 a0bc d899 3fbc
00000220: 945d b4ba ca72 04bd ce6f adbc c1ee f73b
00000230: 34db ab3c 70c1 f7bc ea7c f0bc 14df 733c
00000240: e954 7bbc 0adf 2b3c 4ec3 82bc cbbe 3abc
00000250: 4376 dd3c df26 1bbc b0b4 603b 8515 bfba
00000260: 00a7 c93c abd9 063d 526c d63c b630 823c
00000270: 048d 5d3a f33d 0cbc c5cb bc3c d429 353d
00000280: 675e a33c 19d4 39bc 999d 0abd b3e7 fcbc
00000290: 1201 1c3b db19 23bc 8f47 343b 681a 21bc
000002a0: 9d6d fabc 0a1d 7bbd d353 56bb 9035 083d
000002b0: 4fdf 573c 743d 103c fdbb 14bd 5d97 9bbb
000002c0: e4a6 be3c e575 d73c 90ac 6ebc 7cf1 18bb
000002d0: 0549 f83c d7d5 d13c d281 3c3c 9df0 b7bc
000002e0: 9ed6 c7bc ce3e b03c a357 813c 5656 e7bb
000002f0: 7650 083d 16d7 cd3c 6f63 3cbc 0853 3b3c
00000300: d9c1 003d 5d38 a43c 1cce 82bc e8b9 16bd
00000310: e610 023c c7f9 3d3c 0a5b 0dbd 00b9 db3b
00000320: 5a7d c03d 51f3 e3bb 1c1f a9bd b959 22bd
00000330: 1a85 653d 4587 a63d 0d7e 0abd 409c f0bd
00000340: 863d 2fbd 803a 383d f4be 8b3d 241f 71bc
00000350: 098b aebd 860e a0bd 94d3 d53c b937 963d
00000360: 55a3 003d 7e73 05bd 040f 24bd 9d8f a63c
00000370: 3b7d 5f3d 21ab 20bb 0d6d 56bb c39f cfbb
00000380: 59b3 5a3c c388 0f3d 16f7 43bc 3356 7e3c
00000390: deb6 973c 30ba fa3b 5ebe 093d 2e5c c1bc
000003a0: bab1 713b 35b9 96bb ff10 5f3c 8b62 43bc
000003b0: 698b 89bc 24bf c8bc 616f bf3c a8cb 163c
000003c0: f0ac fabc d7fa 443b e2c3 d3bc 12a0 f3bc
000003d0: c2a4 b33c 2f2a 96bc 5739 c93c 2a65 153d
000003e0: 4345 a93b fa75 863c eca7 09bd 2a6d 3abd
000003f0: 469d bb3c 7585 7a3d 0bc4 8c3d d997 8fbb
0.007471753 0.01066549 -0.005846148 0.028433643 0.039390516 -0.02981518 0.0040670508 -0.030886339
0.0048828265 0.010588659 -0.006183421 0.025019147 0.0045634545 -0.03630319 -0.0053419457 -0.020191554
-0.030085634 -0.0062460364 -0.036966845 0.020856408 -0.00012620822 0.010917158 0.020738661 0.027847344
-0.012572325 -0.0054977303 -0.031623557 0.013278782 0.026197886 -0.031027542 0.013048393 -0.013968545
0.0134999445 -0.019160615 -0.0016555676 -0.03442383 0.024732513 -0.008565067 0.025414648 -0.011218158
0.013786089 -0.01808604 -0.015596649 -0.008718879 0.024437997 0.022117447 0.021086887 -0.0049608103
0.008678278 0.032549195 -0.013601747 -0.011365352 0.02659386 -0.030034402 -0.016655121 -0.019683959
-0.007624669 -0.026296204 0.007980455 -0.024530148 -0.015050936 -0.033908993 0.023360724 -0.021859793
-0.0037715968 -0.020737138 -0.0045117387 -0.0064505357 -0.011180828 -0.00012289562 0.01539996 0.029520445
0.026599577 -0.026525157 -0.0037957772 -0.011809582 0.039690144 0.049564958 0.03551966 0.02236317
0.055868868 0.04973119 0.02442352 0.017407823 0.0063208127 0.042937506 0.023096647 0.013161099
-0.024001349 -0.034590013 -0.009679976 -0.02427243 -0.055671543 -0.046775077 -0.032354176 -0.038123492
-0.047519747 -0.045449782 -0.025307253 0.0063161883 0.0011901933 0.0038274173 0.012618789 -0.0035448184
0.0037899422 -0.013165498 0.027920865 -0.0010875586 0.026652431 -0.018542629 -0.033998564 -0.0007410062
-0.033882618 0.02250455 0.022454 0.02301224 0.025128013 0.0063236044 0.0113518145 -0.006715735
0.0293673 0.00966086 -0.012505268 -0.03479608 0.0033247166 0.006458464 0.03747745 0.04224395
0.03451105 -0.0004307273 0.018367149 -0.016056411 0.0073140715 0.007754283 -0.019533258 -0.011694394
-0.0013760799 -0.032336034 -0.021171477 0.0075663035 0.020978548 -0.030243605 -0.029356439 0.014884729
-0.015340068 0.010490188 -0.01596227 -0.011398028 0.02703393 -0.009469717 0.0034287386 -0.0014578557
0.024615765 0.032922428 0.026174698 0.015892368 0.0008451494 -0.008559692 0.023046384 0.044229344
0.019942475 -0.011342072 -0.033841703 -0.030872202 0.002380435 -0.009954895 0.0027508473 -0.009832956
-0.030569846 -0.06130699 -0.0032703772 0.033254206 0.0131757995 0.008803714 -0.036312092 -0.0047482685
0.023272939 0.026301334 -0.014567509 -0.0023337295 0.030308256 0.025614662 0.011505561 -0.0224536
-0.02439433 0.021514323 0.015788859 -0.0070598526 0.03327986 0.025126975 -0.011498316 0.01143337
0.031434868 0.020046407 -0.015967421 -0.036798388 0.007938599 0.011595196 -0.03451065 0.0067054033
0.09398909 -0.006956496 -0.08257887 -0.039636347 0.05603514 0.08131269 -0.033811618 -0.11748552
-0.042783283 0.044977665 0.06823531 -0.014716897 -0.085226126 -0.0781527 0.026101865 0.07334847
0.031405766 -0.032580845 -0.040053383 0.020332152 0.05456279 -0.0024516063 -0.0032718808 -0.0063361838
0.013348424 0.035042536 -0.011960765 0.015523481 0.018519815 0.00765159 0.033628814 -0.023603525
0.0036879615 -0.004599715 0.013614892 -0.01192535 -0.016790109 -0.024505205 0.02336854 0.009203829
-0.030600041 0.0030056739 -0.02585024 -0.029739413 0.021929149 -0.018330662 0.024563475 0.03647343
0.0051657273 0.016413677 -0.03360741 -0.045514263 0.022902142 0.06116243 0.0687333 -0.0043821153
